assets/model.tflite (tflite, 52968 bytes, 9 tensors)

sequential_9/dense_42/BiasAdd/ReadVariableOp f4 [16]
00000000: e4ef 31c0 dd12 413f 47dc 5b40 c912 eabe
00000010: c65f d6bf 015c 4ebe 94cb dcbe dd9f d83f
00000020: c69f 5540 7a20 bd3e eccb 59bd 3748 90be
00000030: 4598 5540 d249 c1bf 7e38 31be fa5e ff3f
-2.7802668 0.7541941 3.4353197 -0.45717457 -1.6747978 -0.20152284 -0.43124068 1.6923786
3.3378768 0.3693884 -0.05317299 -0.28180096 3.3374188 -1.5100653 -0.17306706 1.995086

sequential_9/dense_41/BiasAdd/ReadVariableOp f4 [32]
00000000: 2407 c73e 7583 0b40 4c98 1d40 640d 02be
00000010: aff3 6e3f ae9b 3d3f ff1f 75be 371c afbe
00000020: 2830 1c40 5586 01c0 698d 613f d208 c0bd
00000030: 45d3 e5bd dd55 3940 f33f e03f 384a 98be
00000040: 93ff 74bf 9a58 ed3f 6297 2a40 61d9 ebbd
00000050: 9e28 0cbe eb10 f2bd 4747 16be 80a8 3740
00000060: 29c8 abbf edbc f6bf 06d8 ccbf 2687 083f
00000070: 1245 163f fa5e aebd 6ce9 1f3d 5b92 97bf
0.38872635 2.1798985 2.4624205 -0.1270042 0.9334058 0.74065673 -0.23937987 -0.34201214
2.4404392 -2.023824 0.881064 -0.09376682 -0.11221937 2.8958657 1.7519516 -0.29744124
-0.95702475 1.8542664 2.6654897 -0.11516071 -0.13687369 -0.11819633 -0.14675628 2.8696594
-1.3420459 -1.9276406 -1.6003425 0.5333122 0.5869914 -0.08514209 0.039040968 -1.1841539

sequential_9/dense_40/BiasAdd/ReadVariableOp f4 [64]
00000000: 16ae d6bd 0aa3 12be 32fb 00be 64e0 1c40
00000010: bc19 a73f 1082 edbd 190d 853f a762 02bf
00000020: bd95 a1bd ee56 61bf 9ec0 5fbd 29dd 57bd
00000030: b050 c8bd 1fbb f93c bcc0 aa3e 12b6 dcbd
00000040: 333e 1640 e985 963f bd6f 0240 0584 0140
00000050: e701 f6bd 3ab3 f0bd 8262 d3bf 6641 8cbf
00000060: ac3f 7abd 3ecb 2b40 2c56 9b3f 22f2 51bd
00000070: fefe ed3f 22b0 1640 07e7 2340 e916 2e40
00000080: 2dfd bcbd 78f8 be3f c015 e83f ef6e fabd
00000090: 2808 05c0 5a1d 4640 f73f 1dbe 244b 133f
000000a0: 41b2 0d40 e8f4 d9bd b65d 0cbe d3f1 5cbf
000000b0: 68ab ea3f 4e62 2340 19bb 1fbe 8e00 1040
000000c0: a97d 2340 5d5c 08be 7a47 f13e a019 f8bd
000000d0: 067a ecbf 4bd8 0340 207a 05be f0f6 03be
000000e0: 9425 b03e 93c5 06be a207 93bd f507 8f3f
000000f0: f2f5 adbd e4c3 0040 24c1 ed3d 2d3f a7bd
-0.10482423 -0.14320007 -0.12595823 2.4511957 1.3054729 -0.11597073 1.0394622 -0.5093178
-0.078898884 -0.8802327 -0.054627053 -0.05270115 -0.09781015 0.030484734 0.3335017 -0.10776915
2.3475463 1.1759616 2.03807 2.0236828 -0.120120816 -0.11752935 -1.6514437 -1.0957458
-0.06109588 2.68428 1.2135673 -0.051256306 1.8593442 2.3545003 2.5609758 2.7201483
-0.09227977 1.4919577 1.8131638 -0.1222819 -2.0786228 3.0955415 -0.15356432 0.5753653
2.2140048 -0.10642415 -0.13707623 -0.86306494 1.8333559 2.552875 -0.15598716 2.2500339
2.5545447 -0.13316484 0.47124845 -0.121142626 -1.8474739 2.0600765 -0.13034868 -0.12887168
0.3440367 -0.13161306 -0.0717919 1.1174303 -0.08494176 2.0119562 0.11609104 -0.08166347

sequential_9/dense_39/BiasAdd/ReadVariableOp f4 [128]
00000000: 3394 b23f 5ecc 443f 0000 0000 6042 8d3e
00000010: a412 ee3f 1aba 0540 0000 0000 2b7f 5dbc
00000020: 4446 66bf 0000 0000 0000 0000 5b91 56bf
00000030: a67c d53f 0000 0000 0000 0000 da6b d8bf
00000040: 0000 0000 f4a1 27bf 12eb d83f 644a 7ebe
00000050: 271a 703e 7a63 49c0 2549 0f40 79aa 4c3f
00000060: 0000 0000 0000 0000 0000 0000 2b70 d0bf
00000070: b497 e7bf c92a 00bf 0000 0000 0b81 203f
00000080: 94f9 513e 0000 0000 ac8f 4bc0 0000 0000
00000090: 0000 0000 cac0 26c0 0000 0000 0000 0000
000000a0: 83e6 a8bb e5d8 e9bf 027e 11c0 45bd a63f
000000b0: 0000 0000 0000 0000 7a14 1240 fa25 58be
000000c0: 0000 0000 f5e3 d33f e324 abbf a7d4 ac3f
000000d0: 8dcf fa3f 0000 0000 b44b d2bb a639 ee3f
000000e0: 5913 1d40 0000 0000 0000 0000 0000 0000
000000f0: 6b4b 2fc0 0941 2c3f 0000 0000 8779 37be
00000100: b4d1 1840 5b2a a63f 81e8 093f 594f 263f
00000110: da10 8c3f 0000 0000 ae63 903f 6fed ab3f
00000120: bbd9 0240 0000 0000 0000 0000 0000 0000
00000130: 0e56 1540 5754 af3f 7674 1abf b5ec 233f
00000140: bdbf fdbf 0000 0000 f4d8 89bd b618 17c0
00000150: 95e2 00bf d55b dd3f 0000 0000 0000 0000
00000160: 0000 0000 1fce 63c0 fde2 e23e 7d24 ab3f
00000170: b7d4 c33f 0000 0000 e368 ac3f 0000 0000
00000180: 4945 0b40 0000 0000 ccc4 f53f 0e4d d73f
00000190: 14a7 08c0 43dd bc3f 0000 0000 6355 8ebe
000001a0: 1ce0 12c0 0000 0000 0000 0000 8ddd f5bf
000001b0: 0000 0000 0000 0000 0000 0000 0000 0000
000001c0: 1380 18c0 e670 b3bb 1435 883e d32b 0140
000001d0: 71ef 313f 0000 0000 0000 0000 0000 0000
000001e0: 0000 0000 2b06 d1be 0000 0000 cc02 0040
000001f0: 0000 0000 0000 0000 0000 0000 0e73 ec3f
1.3951477 0.7687434 0.0 0.27589703 1.8599439 2.0894837 0.0 -0.013519089
-0.89950967 0.0 0.0 -0.83815545 1.6678665 0.0 0.0 -1.6907914
0.0 -0.65481496 1.6946738 -0.24833065 0.23447476 -3.1466966 2.2388394 0.7994762
0.0 0.0 0.0 -1.6284231 -1.8093171 -0.50065285 0.0 0.62696904
0.20505363 0.0 -3.180644 0.0 0.0 -2.605517 0.0 0.0
-0.0051544323 -1.8269316 -2.273316 1.302651 0.0 0.0 2.2824998 -0.21108237
0.0 1.6553942 -1.3370632 1.3502396 1.959459 0.0 -0.006417716 1.8611343
2.454306 0.0 0.0 0.0 -2.7389781 0.67286736 0.0 -0.17917453
2.3877993 1.2981676 0.538704 0.64964825 1.0942643 0.0 1.128042 1.3431834
2.0445392 0.0 0.0 0.0 2.3333774 1.3697613 -0.60333955 0.6403306
-1.9824139 0.0 -0.06730834 -2.3608832 -0.50345737 1.729365 0.0 0.0
0.0 -3.5594556 0.44313803 1.337051 1.529929 0.0 1.3469509 0.0
2.1761038 0.0 1.9200683 1.682039 -2.1351976 1.4755024 0.0 -0.2779952
-2.2949286 0.0 0.0 -1.9208237 0.0 0.0 0.0 0.0
-2.382817 -0.005476105 0.26602995 2.0182998 0.69505984 0.0 0.0 0.0
0.0 -0.40825018 0.0 2.0001707 0.0 0.0 0.0 1.8472612

sequential_9/dense_39/MatMul f4 [128, 12]
00000000: efb7 27bf 48be 8c3d b1b5 07c0 10e0 3abd
00000010: 6699 f73e 80a6 8d3f de0a c4be c85d 19c0
00000020: 4a6d 753f dea6 8dbe 5332 dd3f a430 9f3d
00000030: 3606 bebf 9fc8 15be 9118 af3f c61b 17c0
00000040: 2591 523f ab1c 253f 1fbf 5e3e 6977 af3f
00000050: 2a9c c63f 0efb cbbc d756 293f 9d2f cdbf
00000060: 004f 0f3c 148f 3fbe 21de 073e 14b1 333d
00000070: f062 81bc f48d 01bd 3570 d6bd 908b 49be
00000080: 68c2 3fbe 0f01 febd fa9a 3ebe 346d 673d
00000090: 094b 7abe 6bb6 52bd 7a9e d33d 4b4a bd3f
000000a0: a742 18c0 bb70 93bd 3413 df3f 565c 2dbf
000000b0: 64d6 be3f d210 1bc0 b64c 873f e1b4 5c3d
000000c0: 593b 833f 8ac8 1c3d d0c0 0f3e 0d8f cd3d
000000d0: e423 73c0 3602 68bf 0301 4a3f f896 96bf
000000e0: b9e0 063e 349e a5be 0023 ee3e 039f 863f
000000f0: f368 56bf b84c 98bd 2f64 d13f 4737 9bbf
00000100: 3e6b 713f f281 a43f 25c8 04c0 2875 c7bf
00000110: 09c1 023e 679b 7a3f cae9 febd fba4 273e
00000120: 7699 f2bd ea52 02be 206d e13c a2ea a03d
00000130: 5442 0e3d 7dd4 f2bd f7e3 33be c891 8fbd
00000140: 508b b43c c2a0 a03d fabe c23d aca4 3e3d
00000150: e8fd 903d e0bb c9bc 939a 45bd 99dc 3fbd
00000160: f8b8 173e 3016 873d 8d86 963d 790c a6bd
00000170: cdfa 32be dfd2 55be ea70 1c3e 4ab6 b1bc
00000180: 2c84 0abe 2ca9 603c 3b68 30bc 0fcc 293e
00000190: abc7 b83d 4938 acbd 65ae 823d 3779 f6bd
000001a0: 8795 d0bd 5837 b9bd dbe6 2ebe b3cf 4cbe
000001b0: df49 c6bd 4a80 14be ac7c 2cbd 977e 053e
000001c0: 9641 0fbe 9d97 febd 4c3a 52be 8810 073d
000001d0: df84 3d3e 40ee a13c 20f7 883c ca3e 23be
000001e0: 280a 29bd 50aa 26be a566 04be 3e70 13be
000001f0: dcf0 09be 587d fc3c b811 f0bc 2af0 2ebe
00000200: 40ed d73c da47 823d 4846 13be 4049 453b
00000210: 6705 8a3c e76d 283e 050c 57bf 1ff4 9fbf
00000220: 10ab 0bc0 6b16 a33f c94a a4be 931c 90bf
00000230: 4641 0340 b889 d7bf 384d 973f d154 dc3f
00000240: 06a4 5b3f 94a6 b63c 8bd4 923f fea6 8ebf
00000250: 682c 3d3f 5667 ebbe e962 acbf b796 cb3f
00000260: f920 5ebf abe5 30c0 7bf7 05c0 fb4a b83e
00000270: 96e6 b9bd b4cb 43bd 68c5 14bd 9247 4bbe
00000280: f9a2 313e 05cc 4abe 5297 99bd 6c35 0f3d
00000290: b200 ac3d 8036 ed3a 3ac8 8b3d 893d a8bd
000002a0: b85a a2bc cc49 37be 9fc7 293e e196 4e3e
000002b0: e6b8 f93d b075 0f3c 30dc 15be 0d4e b2bd
000002c0: 2869 79bd 504b c5bc 4767 183e b2ba 903d
000002d0: 0fad 8ebf df8f 1fbe 5d90 c63f 7ff1 ba3f
000002e0: de90 7b3f 26cc bb3f 7689 3bbf d781 9d3f
000002f0: b902 353d 1f14 51bf 483f 14bf e199 39bf
00000300: 8208 a73d 1064 42be 283c 2bbd 7535 473e
00000310: ca43 ddbd f23b 9cbd f768 44be be78 873d
00000320: 1d8a 3d3e 5ca8 1f3d 6511 463e 888c 3dbe
00000330: e4e0 7d3e 3cdf 913e 29cd cd3e 6c46 03bf
00000340: b3a5 04bf d38a 1dbf 725e 7dbf f814 e8be
00000350: f54c 44c0 ac3b 3cc0 e475 6fc0 771f 31c0
00000360: 8c83 dc3e 4ce9 323d e89e 233f 52ae e0bf
00000370: 00f6 b2bf dbcc 3fbf 2a6f a63f edaa 3d3f
00000380: dcee 25be 6588 20be 24e6 e83b 2b6d 28bf
00000390: eb65 eb3e f8db 6d3b 46a1 93bf 91dc 1e3e
000003a0: a354 ca3f f3fa 1740 a9ae b7bf 278f 493f
000003b0: f4ef 37c0 927d 82bf f865 65c0 b034 6a3f
000003c0: 857d b5bf 5063 b83d e02b c13f eccd ba3f
000003d0: 603f 3dc0 9dfa 4ebf ad19 5cbe 164a 0e3f
000003e0: 4303 40be f2fc 133f e234 853e 3020 99bf
000003f0: 0680 143e f589 773a c2b4 8f3b 062a 05bf
-0.65515035 0.06872231 -2.1204646 -0.04562384 0.4835922 1.1066437 -0.3828954 -2.396349
0.95869887 -0.27666372 1.7280983 0.07772949 -1.4845645 -0.14627312 1.3679372 -2.3610702
0.8225272 0.6449687 0.21752594 1.3708316 1.5516407 -0.024899986 0.6614813 -1.6030155
0.008746862 -0.18706924 0.13268329 0.043870047 -0.015794247 -0.031629518 -0.104706205 -0.19682145
-0.18726504 -0.12402546 -0.18613806 0.05650063 -0.24442686 -0.0514435 0.103329614 1.4788297
-2.3790681 -0.07199236 1.7427735 -0.6771902 1.4909177 -2.4229016 1.0570285 0.053883437
1.0252486 0.038277186 0.14038396 0.100370504 -3.7990656 -0.90628374 0.78907794 -1.1764822
0.13171662 -0.32347262 0.46511078 1.0517277 -0.8375389 -0.07436508 1.6358699 -1.2126244
0.94304264 1.2852156 -2.0747159 -1.5582628 0.1276895 0.97893375 -0.124469355 0.16371529
-0.118456766 -0.12726942 0.027517855 0.07857253 0.034731224 -0.11856935 -0.1756743 -0.070102274
0.022039086 0.07843162 0.09509082 0.046543762 0.07079679 -0.024625719 -0.048243117 -0.046841238
0.14816654 0.06596029 0.07349882 -0.08107848 -0.17478485 -0.20881222 0.15277448 -0.021693368
-0.13526982 0.013712209 -0.010767038 0.16581748 0.09022459 -0.08409173 0.06380919 -0.12034839
-0.1018477 -0.09043759 -0.17080252 -0.20001106 -0.096820585 -0.14502063 -0.042111084 0.13036571
-0.13989863 -0.12431262 -0.20530051 0.03297475 0.18507718 0.019766927 0.0167194 -0.15941921
-0.04126945 -0.16275907 -0.12929781 -0.14398286 -0.13470787 0.030821487 -0.029305324 -0.17083803
0.026358247 0.06361361 -0.14382279 0.0030103475 0.01684828 0.16448174 -0.84002715 -1.2496375
-2.1823158 1.2741216 -0.32088307 -1.125872 2.050859 -1.6838903 1.182044 1.7213384
0.85797155 0.022296228 1.1471113 -1.1144712 0.73895884 -0.45977277 -1.3467685 1.590537
-0.8676906 -2.7640178 -2.09323 0.35994706 -0.09077184 -0.04780169 -0.036321074 -0.1985152
0.17347325 -0.1980439 -0.07499565 0.034963056 0.0839857 0.0018097907 0.068252996 -0.08214862
-0.019818649 -0.17899245 0.16580056 0.20174743 0.1219347 0.008756086 -0.14634776 -0.08706293
-0.0608913 -0.024083763 0.14883147 0.07066859 -1.1146563 -0.15582226 1.5512806 1.4604949
0.98267925 1.4671676 -0.73256624 1.2305249 0.04419205 -0.8167133 -0.5790906 -0.72500426
0.081559196 -0.18983483 -0.041805416 0.19453986 -0.10803945 -0.07628621 -0.19180666 0.066148266
0.18509717 0.03897892 0.19342573 -0.1851064 0.2479282 0.28490627 0.40195587 -0.5127933
-0.51815337 -0.61539954 -0.9897224 -0.45328498 -3.067197 -2.941142 -3.7415705 -2.7675455
0.43069112 0.04367952 0.63914347 -1.7553198 -1.3981323 -0.7492196 1.3002675 0.7408894
-0.16204399 -0.1567703 0.007107513 -0.6579158 0.45976195 0.0036294442 -1.1533592 0.15513827
1.5807079 2.3746917 -1.4350177 0.7873406 -2.8740206 -1.0194571 -3.5843487 0.91486645
-1.417893 0.09003317 1.5091515 1.4594092 -2.956993 -0.80851156 -0.2149417 0.55581796
-0.18751244 0.5780784 0.2601691 -1.1962948 0.14501962 0.00094428594 0.0043855617 -0.5201725

sequential_9/dense_40/MatMul f4 [64, 128]
00000000: a245 32be d975 93bd 0b2e 043e eda7 7abd
00000010: ea63 03bd 65e7 8ebd 892e 2dbe 968c 33be
00000020: 6703 923d ae5c 7cbd f2c3 a53d 55a9 31be
00000030: 0ff9 64be d6a1 d83d ab89 343e 829d a3bd
00000040: d6c9 df3d 3c67 d33d 74b7 69be 585e 993d
00000050: 4253 cf3c 3102 3bbe 8d71 b03d 79d2 68be
00000060: d0d4 89bc 5efb c83d dcb8 4abd da7c 47be
00000070: 6cac 903d cd23 023e 0ce0 21be a27b 56be
00000080: 5c45 be3d 6041 263d 1d85 5bbd 2c4c 1a3d
00000090: fe7e a53d 2e72 463c 8201 ee3d 4022 75bb
000000a0: c0be a23b 7c45 843d 75e5 cbbd 815c e33c
000000b0: 43b0 34be 5c63 043d 0f22 d13d e3c7 a83c
000000c0: 48a2 323d d31e 18be ec45 ffbd 9245 b4bb
000000d0: 1484 8bbd 38d3 32be fcd7 cdbd fd0e ae3d
000000e0: dc4e 2bbe 5d27 103e 00ac cfbd c056 0c3b
000000f0: f022 293d c57c 23be 004a 213b ca29 3abd
00000100: b551 a6bb 1fe9 3abe 27f9 b43d f1df e53b
00000110: 31d6 083c 6f00 1b3e 2844 dcbd 7a41 3f3d
00000120: 4858 af3d f813 e9bd c680 aa3d 20dc 003d
00000130: 0f2e ddbc ce2d 10be 7ad4 80bd 04d7 a53c
00000140: 179f ac3d 20c3 e03c 1a40 47be 7abe b03d
00000150: bfbb 213e e678 e93c 46f9 94bd 10df c93c
00000160: bac3 e5bd 85be 1f3d dfe1 edbd fc10 59be
00000170: 7f24 53bd 57f2 263e d1ba c3bd 6da3 2b3e
00000180: 0b53 26be c144 0bbe 0cf4 e7bd 8178 28be
00000190: 4ee5 4bbe b553 18be 0225 c23d c25c 34bd
000001a0: 3723 ca3c 34bd 893d d2de c73d 6e88 53be
000001b0: ca66 ce3d cd14 163e 3f1d 24be a2d1 1cbe
000001c0: 27c9 bc3d 3a06 ae3d 996b 03be daaa cfbd
000001d0: d992 bd3d 6a3f f43d ea79 9fbd 7e00 e2bd
000001e0: a073 413c b26a ebbd 201a a33c 391d 7b3d
000001f0: 9649 97bd 5860 f0bd d58c a7bd f478 3e3d
00000200: 6aff ce3c 64be 19be e146 84bd c48a 8dbd
00000210: d1fc be3c ea24 cb3d 8ccd 74bd 9771 f2bd
00000220: c00a 303c 005a 35ba 1871 ed3c 5dd7 e13c
00000230: 66b4 2bbe 5725 16be 1689 bf3d 4079 cfbd
00000240: 5bd8 113e 1c80 13be be3a 77be 52ea f33d
00000250: 1109 cc3d 37fb 0dbb 80f1 6dbe 2499 5fbe
00000260: 0088 cf38 9a92 d43d 7e90 a13d aebd 7e3c
00000270: e3ee 97bd e86c 043d f6a1 f23d 96c7 09be
00000280: b7eb 03bd e89b 10bd 4e1b 5cbe c3ce 093e
00000290: 7431 c6bd 991e a23c 1045 563d b8c3 0ebe
000002a0: e8a7 0bbe 0abb 20be edfd 62be 75bf 993d
000002b0: 90a1 21bc 18a6 163d 71a3 22be de1e 4ebe
000002c0: dfbe 29be 93e3 bc3d 8894 3fbd 1a61 4cbe
000002d0: 6e3c 12be 301f 82bc c60a b23d 63ea 0ebe
000002e0: 5a1d 123d bd86 24be 30bd b7bc 804c fe3b
000002f0: fb79 c03d 5fe1 e7bd c09e ea3b 4110 26bd
00000300: 8072 febc 65f0 a3bd 4de5 9dbb 3ac3 c2bc
00000310: deb2 36be 3cd7 ddbd 046e c1bd 3c97 0ebe
00000320: 7785 11be e266 5fbd e02a 893d ad6a 003e
00000330: 3663 23bb b583 15be 244c 243d 2277 c93d
00000340: 338c 59bc e249 cf3d 6601 b73d 7f75 36be
00000350: 283f f13c b207 61bd 1c49 a6bd 36ba 833d
00000360: 769c edbd 39ac bebd 723b e0bd a7e1 71bd
00000370: c3b5 65be c017 0c3c 5824 ce3c f401 6f3d
00000380: ec5e 1dbe dc50 81bd 2370 90bd 1c14 58bd
00000390: 4b3e 283c d2b3 29be a5d2 153e 140d 0ebe
000003a0: 52c1 30be 0192 333e 457b a2bd 4f97 3abe
000003b0: 151c 25be e026 6ebd cb7f 0abe 5bbb 2f3e
000003c0: a363 3abd 4092 cd3c accf 3ebe 4068 5ebc
000003d0: 78dc f7bd 8412 24be 9038 44bd 4ad3 d63d
000003e0: 0cdf 063d a6c4 1fbe 8236 ca3d 1815 603d
000003f0: 66e3 e53d e7ee c4bd 4854 2bbd 9ced 51bd
-0.17409375 -0.07200212 0.12908189 -0.061195303 -0.032077707 -0.06977729 -0.16912283 -0.17534098
0.07129555 -0.061611824 0.08094014 -0.17349751 -0.22360633 0.10577743 0.17630641 -0.079890266
0.10927169 0.10322425 -0.22823888 0.07488698 0.025308255 -0.18262555 0.08615408 -0.22736539
-0.01682511 0.098135695 -0.049492702 -0.19481221 0.07064137 0.1270897 -0.15808123 -0.209456
0.09290573 0.04058969 -0.053593744 0.0376703 0.080808625 0.0121121835 0.11621381 -0.0037404448
0.004966587 0.064585656 -0.09955875 0.02775407 -0.17645364 0.03232132 0.10211574 0.020603126
0.043611795 -0.14855509 -0.124645084 -0.0055014575 -0.06812301 -0.17463386 -0.100509614 0.084989525
-0.16729301 0.14077516 -0.10140228 0.0021414012 0.041293085 -0.15965565 0.0024610758 -0.04545001
-0.005075658 -0.18252991 0.088365845 0.0070152213 0.008351848 0.15136884 -0.10755187 0.046693303
0.0856176 -0.11380762 0.08325343 0.031459928 -0.026999502 -0.14079973 -0.06290527 0.020244129
0.084287815 0.027436793 -0.19458047 0.086300805 0.15794276 0.028500032 -0.07274108 0.024642497
-0.112189725 0.039000053 -0.11615347 -0.21197885 -0.051548477 0.16303383 -0.09557117 0.1676156
-0.16242616 -0.13600446 -0.11325845 -0.16452219 -0.19911692 -0.14875682 0.09479715 -0.044033773
0.024674995 0.06725541 0.097592965 -0.20657513 0.10078199 0.14656372 -0.16026781 -0.15314344
0.09218054 0.084972814 -0.12834014 -0.10140009 0.092565246 0.11926158 -0.07786925 -0.1103525
0.011807352 -0.1149496 0.019909918 0.061307166 -0.07387082 -0.11737126 -0.081811585 0.04650207
0.025268275 -0.15014035 -0.064588316 -0.06911233 0.023313912 0.0991915 -0.059766337 -0.11838072
0.0107447505 -0.0006918013 0.028984591 0.027568514 -0.16768035 -0.14662682 0.09352319 -0.101305485
0.1424269 -0.14404339 -0.24143502 0.119099274 0.09962667 -0.0021664628 -0.23236656 -0.21835762
9.895861e-05 0.103795245 0.07888888 0.015548153 -0.07418611 0.032330424 0.11847298 -0.13455042
-0.032207217 -0.035304934 -0.21494791 0.1345778 -0.09677401 0.01978998 0.052311957 -0.13941848
-0.1363827 -0.1569635 -0.22167177 0.07507221 -0.00986518 0.036779493 -0.1588266 -0.20128962
-0.16576718 0.09223094 -0.04677251 -0.19958916 -0.14280865 -0.015884012 0.08693461 -0.13956599
0.035672523 -0.16067024 -0.022429079 0.0077605844 0.09398266 -0.11322283 0.0071600378 -0.040542845
-0.031060457 -0.08004836 -0.0048185945 -0.023774732 -0.1784167 -0.10832068 -0.09444812 -0.13924879
-0.14211069 -0.054541476 0.06697631 0.12540694 -0.002493096 -0.14601023 0.040111676 0.09837176
-0.013278055 0.10121514 0.089358136 -0.17818259 0.02944906 -0.05493898 -0.08119413 0.06432001
-0.11602108 -0.093101926 -0.10948838 -0.05905309 -0.22432618 0.008550584 0.025163814 0.058351472
-0.15368241 -0.06314251 -0.070526384 -0.052753553 0.010268758 -0.16572502 0.14631136 -0.13872176
-0.17261246 0.17536165 -0.07933668 -0.18221782 -0.16123994 -0.058142543 -0.13525312 0.17161314
-0.045505177 0.025094151 -0.18633908 -0.01357466 -0.12102598 -0.16022688 -0.047905505 0.10489519
0.032927558 -0.15602359 0.09873678 0.054707617 0.112250134 -0.096158795 -0.041828424 -0.051251993

sequential_9/dense_41/MatMul f4 [32, 64]
00000000: 2bb7 5b3d 005d 28bd f0ec 45bd dad7 ea3e
00000010: ebe5 833e 3583 6cc0 ee96 d6be 2fa0 d03f
00000020: 6040 a13c 4cb6 9bbf 2867 9c3d 208c 323d
00000030: 0c84 5abe 616b 3abf 7039 ac3e ef0f 47bf
00000040: 98c4 87c0 fb90 af3f 22b0 c4be 17e7 d63e
00000050: 95e7 e63b 08e0 f2bd 2b9f 95bd 76d1 3ec0
00000060: 28fc 753e 3e8e 24bf 759c 903e f097 41bd
00000070: 471f 94be 3bfa cb3e 76ed 23be e7fd a0bc
00000080: f7ab 6e3e 75f1 a4be ca25 db3e cc7b 533e
00000090: d149 b3bf e827 023e 0f25 163e 2d18 07c0
000000a0: d4f9 113f 9945 d43d 8455 603e aa7d f33d
000000b0: 22d0 cf3e ca0c 07bf f8f9 913d aa67 ab3e
000000c0: c1eb d4c0 99b0 d83d b14a 4cc0 0031 d43c
000000d0: 0cce 3cbe d77e 30bf 4c51 5bbe 893b 0dbd
000000e0: 4af2 eac0 fbf9 54bd 400f 113d da10 cc3e
000000f0: a019 dbbc df38 fc3e bfee a33d 5348 0e3e
00000100: 62f6 203d e0f1 28bd 12d2 8dbe 8bfb f63e
00000110: a6ec d7bd 6ee6 fe3d 5493 e93f 2b3f c33e
00000120: 7228 37bd 6840 b33e d3d0 d83d 48d7 2d3e
00000130: 3ede 953d b1d6 48bf f01a e83f 0e87 8fbf
00000140: 0ae9 633f 3d25 f73d 57f0 39bf ac8f 723f
00000150: eb80 b8bd 6916 953d da83 c0bd 84db 93be
00000160: 5167 b8bc 70a1 9d3f 8bb5 7dbe b9b2 85bd
00000170: 295d 06be 56f2 80bd cabf c73e a6ee 453d
00000180: 950b afbd 693a c5bf 5103 8c3f 2246 5abd
00000190: 0a42 c6bf a6c8 e0be 0f95 ffbd 81e2 5bbe
000001a0: 91d0 b6bf 4718 31ba 7ae5 683e 0cd5 16be
000001b0: f3e0 05be e58b 8e3e 98ce 1f3d 77c0 01bf
000001c0: bcb6 373d 5116 1bbe 0aeb 54c0 f503 d6bd
000001d0: afbc 58bf 3fa0 c33d 4701 e83d 773f 523e
000001e0: 2593 cf3e 68af fdbc a31a 39be 386c 5bbd
000001f0: c4da f03d 4d2e 5c3f ffda a9bd 1718 4ebd
00000200: e637 433e b004 15be 6247 183e ad66 48bf
00000210: 2a38 343e 0e8e 1ebf dc3c f83f c261 303d
00000220: 99e8 52be d18a 47be 6ad1 34be 951f 103e
00000230: 4a6d 363e d093 85bf 7253 813f 4b20 093e
00000240: c2e8 ba3f 8818 efbe e3e6 8d3d af62 b6be
00000250: b34b 0e3c ec28 493e d2af 703e 6721 e5bf
00000260: a80b 92be c5b8 613d bb93 833d 05a7 abbd
00000270: 80d8 3abf a8c0 3ebd bdc9 d73e 1abe bc3e
00000280: 342d 06b9 6adb 163f 7954 a5be cf35 a53d
00000290: cd2e 5f3d 09a7 d53d 9ed0 053e ab85 d9be
000002a0: cf42 2b3f 4647 dbbd 09da 97bd d8ff 4ebe
000002b0: d11a 14bf 9351 8f3f 89f4 8bbc d292 1b3e
000002c0: bb7c 1b3f 2255 95bd 7aaa 4cbf 2914 2bbe
000002d0: 62ac 07bf e1c7 dd3e 1ffb 263d 6e10 16bd
000002e0: eadf 323f bce3 eabd 0ffe cfbd 41d5 9dbb
000002f0: 9635 0a3e 5f18 1b3e 0ba5 51be 8a81 623d
00000300: d83d dabd 00f0 c13b 40d6 72bc c841 963d
00000310: e40b 21bd 78f7 76be 3e12 29be 5cad 6c3e
00000320: 8092 223c addb b9be f030 fc3d 809d a2bb
00000330: 00a9 08bb 006d 15bd 90aa 973d 7820 43be
00000340: 625c 4dbe 6019 e3bd 667c 6bbe 9ea9 1abe
00000350: 4076 c1bc 38f3 63be 01bd 9bbe 18e1 a7bd
00000360: e4c2 523e 3c1e ef3d e960 27bd a094 bcbd
00000370: 74c5 43bd 9991 9dbe a3c7 9f3d e55e a7bd
00000380: a483 423e 124c 85be 505d 6f3b 58e1 91bd
00000390: d81e 2d3e b6a5 aabe 8025 8b3c 38ea 17be
000003a0: 271f d83b 002e 033b 8097 6b3e 00e4 a73a
000003b0: c656 17be 9a6d cc3d 806f 4e3d 946f 19be
000003c0: 87cf f83d 8cdb 07be 0b5b cabd f891 be3d
000003d0: f4e6 623e a2a6 9abe 00f0 363a 64b2 63be
000003e0: c077 153c c882 a3bd 80ce 3e3c 4cf5 8ebe
000003f0: 1859 4bbe 4db6 b4bb d384 38be 404b 8bbd
0.05364148 -0.041104317 -0.048321664 0.45867807 0.2576135 -3.6955082 -0.41912025 1.6298884
0.019684017 -1.2165008 0.07636863 0.043590665 -0.21339434 -0.728201 0.3363757 -0.7775869
-4.2427483 1.371612 -0.3841563 0.41973183 0.0070466497 -0.11859137 -0.073057495 -2.9815345
0.24021971 -0.64279544 0.28244367 -0.04726404 -0.28930113 0.39839348 -0.16008553 -0.01965232
0.23307787 -0.32215467 0.42802268 0.20652694 -1.4006902 0.12710536 0.14662574 -2.1108506
0.5702183 0.10364837 0.21907622 0.11889203 0.4058848 -0.5275389 0.07127756 0.33477527
-6.6537786 0.10580558 -3.1920588 0.025902271 -0.18437976 -0.6894354 -0.21417731 -0.034480605
-7.3420763 -0.051996212 0.035414934 0.39856607 -0.026745617 0.4926214 0.080045216 0.13894777
0.03929747 -0.041246295 -0.27699333 0.48238787 -0.10543184 0.12446295 1.8248086 0.3813413
-0.044716306 0.35010076 0.10586705 0.16976655 0.0731778 -0.78452593 1.8133221 -1.121309
0.89027464 0.120676495 -0.72632354 0.94750476 -0.09008964 0.07279665 -0.09400149 -0.28878415
-0.022510203 1.2314892 -0.24776284 -0.06528229 -0.13121475 -0.06296222 0.3901351 0.048323296
-0.08547131 -1.540845 1.0938512 -0.05328954 -1.5488904 -0.43903083 -0.124796025 -0.21473123
-1.42824 -0.0006755632 0.22743788 -0.14729708 -0.13074093 0.27841106 0.039015383 -0.50684303
0.044852003 -0.15145232 -3.3268456 -0.104499735 -0.8466291 0.09552049 0.11328369 0.20532022
0.4054195 -0.03096743 -0.18076567 -0.053570002 0.11760476 0.8600815 -0.08293723 -0.050315943
0.19064292 -0.1455257 0.1487098 -0.7828167 0.1759955 -0.6193551 1.9393573 0.04306198
-0.20596541 -0.19486548 -0.1765801 0.14074548 0.17815128 -1.0435734 1.010359 0.13391225
1.4602282 -0.46698403 0.06928804 -0.35622165 0.00868504 0.19644517 0.2350457 -1.7900819
-0.28524518 0.05510785 0.06424662 -0.08381466 -0.729866 -0.04657045 0.42146102 0.36863786
-0.00012796075 0.5892855 -0.3229101 0.08066904 0.054487992 0.1043225 0.13067862 -0.42484793
0.66898817 -0.10706954 -0.07414634 -0.20214784 -0.5785342 1.119677 -0.017084377 0.15192726
0.607372 -0.072916284 -0.79947627 -0.16706909 -0.5299741 0.43316558 0.04076683 -0.036636762
0.69872916 -0.11469218 -0.1015588 -0.0048166816 0.13497004 0.15146016 -0.20473115 0.05529932
-0.10656327 0.005918503 -0.014821589 0.073367655 -0.03931798 -0.2411784 -0.16510865 0.23113006
0.009922624 -0.36300412 0.123140216 -0.004962623 -0.0020852685 -0.036480904 0.07405579 -0.19055355
-0.20054772 -0.11088824 -0.22996673 -0.15103766 -0.023615956 -0.2226075 -0.30417636 -0.0819723
0.20582157 0.116756886 -0.040863905 -0.092080355 -0.047795728 -0.30775145 0.078017496 -0.081723966
0.1899553 -0.260346 0.0036524124 -0.07123059 0.16906297 -0.33329552 0.016985655 -0.14835441
0.0065955105 0.0020016432 0.23007011 0.0012809038 -0.14779195 0.09981842 0.050399303 -0.1498397
0.12148958 -0.13267344 -0.09880646 0.09305185 0.22158414 -0.30205256 0.0006978512 -0.2223602
0.009122789 -0.07983929 0.011645913 -0.27921522 -0.19858205 -0.005514896 -0.18019418 -0.06801462

sequential_9/dense_42/MatMul f4 [16, 32]
00000000: 12ff 18bf 6aa7 a53f 8668 a83e 7d58 cebd
00000010: 90d4 32c0 67e9 50bf 622c d33d d857 b5bb
00000020: 149d d6be aa65 113f d864 66c0 e048 f4bd
00000030: 9fd4 223e 8a19 60be cf06 e53d 7a2a 753f
00000040: e6d8 aebe 6fdd 14bd 2d26 45bd a12d 18be
00000050: a3d8 2ebd b12d 513f c596 0fbe 8731 8c3f
00000060: 7403 0ebf fd81 6b3e 7da7 14bf d685 01bf
00000070: 253c 983f e3ae 87be de7d 463f 84e1 033f
00000080: e0aa 513e 0e72 c9bd 0bb4 1f3d fd07 cfbd
00000090: 55fc 9cbe e0bb c3be 2f56 11bd 2902 183d
000000a0: 1393 0d3d 4e97 8e3e 8e4d 94be 66d5 a53e
000000b0: c215 6d3e 2bc7 ddbe 5de5 b1bc abc6 133e
000000c0: 04d5 363e c03e 88be 7786 96bd ce78 46be
000000d0: 8295 3abe 021a a0be d18d 9ebd b3f9 c7be
000000e0: d601 0fbe 1199 bdbd ee35 23bf b46e 50be
000000f0: 380f bebd 9379 9a3e fa82 5abe e794 6c3e
00000100: 9de9 7bbf 9ed8 7d3e 7bd9 9b3e cfb4 853c
00000110: 6f68 823e 0bba 663f 7217 7dbf cee0 84bf
00000120: ed15 2d3d dee5 b4be f508 d73e e8ae b5bd
00000130: 44fa 4cbe 05b3 363f 08bc 33be ea1c 8dbe
00000140: c542 6cbf 75c2 413f c18e 593e 7616 adbd
00000150: b632 3cbe fa47 c63e 18fd 3abe 0774 ea3e
00000160: 045e 4bbf 0f69 06bf 4790 5abf 035a 253f
00000170: 3b55 493f 1200 57be a21f 0abf b6c6 28bf
00000180: 8306 9cbe 7f25 71c0 d8fd d4be 828c 533e
00000190: 4b41 c03e 478f b8be bdbd 603e 8613 f7bb
000001a0: 82b8 9abf a6d1 7ebe 3d1b 333f 6906 9ebd
000001b0: 60ad 053e dca6 3b3d 6b2b 77bf 81e3 9dbf
000001c0: 0eb5 19bf 845f 59be aa54 91bf 6ee4 8cbe
000001d0: da26 a9bd eca0 bbbe 1c14 a0bd c9c8 663f
000001e0: 05e9 fdbe 9345 44be 83b6 01bf 0492 9f3e
000001f0: 7d98 22bf 72b9 a43e 8309 853e 6aaa b5bf
00000200: 9d86 40bf bb9e 38bf 6931 babf 7229 aabe
00000210: ead2 eabe ae74 153f d637 19bd 5bc2 b53f
00000220: 726e 85be 5d34 76bf 70ae 49bf 32f8 533e
00000230: c8d6 69be 9845 e93e 735d 5bbf 49e7 923e
00000240: 8b4c 9a3f 03a5 dabe f520 533f cc63 8fbe
00000250: e4a5 94be b464 3040 e5bd 10bd 83fc dd3e
00000260: c0bf 8a3f e06a a43e 0099 9bbf 1370 99bf
00000270: ff1d d43f 9aa2 05be d4cc d23f 1d07 2f3f
00000280: 3a31 733e 47c5 58be c2d4 e1be 2d38 863e
00000290: 40e4 6c3c c003 5c3e 8574 ae3e 8312 de3d
000002a0: 6354 b0be 0eb3 0e3e a3e0 f5bd 9842 8cbe
000002b0: e2fa 313e 87e4 dbbd a819 41be fd59 0dbe
000002c0: 1bc5 8e3e a482 aebe ba66 b3be c474 343e
000002d0: c0a9 c2bd 804e 7f3d 6acf 7f3e a1c4 8b3e
000002e0: b821 aebe 2a51 1dbd 8a85 a43c 02ae 9cbc
000002f0: 6a0b aabe 25fd 9c3e f790 70be e936 a33d
00000300: 2c48 61bf 32e1 9b3e cc24 903d 3e9e 1c3e
00000310: 7183 0cbc b2f2 d73e 4b56 f0bd b9df a0be
00000320: 483a 703d 0020 7b3c 04e3 1fbe 950c 813e
00000330: 7814 433d 2c6d 4fbf 185b 80bf 06c7 043f
00000340: caa9 16bc 76cb e7bd 25cb af3e 6157 88be
00000350: c574 a73e 4559 03be f6c3 413e 5ca9 d1bf
00000360: 07f5 8ebe 73fa bb3e 9229 eebc dc48 82be
00000370: d8e9 22bf 0000 ea37 e240 453e ded0 b5be
00000380: f4bc a83f f2bc 20bf d77a 2fbf 9809 f7bd
00000390: c998 e6bd c55b 04bf 7cc7 e53e dc89 a93f
000003a0: d177 6f3e cbaf c7bf 9c30 41bf 7ac9 c3be
000003b0: 4855 c4bd 591d fbbe 829b 41bf b23b 01bf
000003c0: dcb7 463f 1b93 3c3f 1e29 b7be 316b bdbe
000003d0: 08f1 74be 7594 04bf 11a1 623c 8b60 11bf
000003e0: 105a e03f fe05 3cbf b1d8 bc3f 40ff e7be
000003f0: c6e4 59bf ca61 983d f05c d53f 7add b63e
-0.59764206 1.2941716 0.32892245 -0.100754716 -2.7942238 -0.81606144 0.103112 -0.0055341534
-0.41916716 0.5679575 -3.599905 -0.11927962 0.15901421 -0.21884742 0.11182939 0.9576794
-0.34149855 -0.036343988 -0.04813211 -0.14861156 -0.04268707 0.81710345 -0.14022358 1.0952615
-0.5547402 0.22998805 -0.58068067 -0.5059484 1.1893355 -0.26500615 0.7753581 0.51515985
0.2047534 -0.09836207 0.03899006 -0.101089455 -0.30661264 -0.38229275 -0.03548258 0.037111435
0.03456409 0.2784981 -0.2896542 0.32389373 0.23152831 -0.43316016 -0.021715814 0.14431255
0.17854697 -0.26610374 -0.07349866 -0.19382021 -0.18221095 -0.31269842 -0.07741893 -0.39057693
-0.13965544 -0.09257711 -0.63754165 -0.2035473 -0.092802465 0.3017088 -0.21339026 0.23103677
-0.9840334 0.24789664 0.30439362 0.016321568 0.25470302 0.9012763 -0.988639 -1.0381105
0.04225724 -0.35331625 0.4199902 -0.08871251 -0.20017344 0.7136691 -0.17552197 -0.27561122
-0.9228938 0.7568734 0.21245863 -0.0845155 -0.1837872 0.3872679 -0.1826061 0.45791647
-0.7944033 -0.52504057 -0.853764 0.6459047 0.78645676 -0.2099612 -0.5395452 -0.6592821
-0.30473718 -3.7679136 -0.41599917 0.20659068 0.37549815 -0.36046812 0.2194738 -0.007540169
-1.2087557 -0.24884662 0.6996344 -0.077160664 0.13054419 0.045813426 -0.96550626 -1.2335054
-0.6004189 -0.21227843 -1.1353962 -0.27518028 -0.082593635 -0.3664621 -0.078163356 0.90150124
-0.49591842 -0.19167165 -0.50669116 0.3116609 -0.6351393 0.32172734 0.2598382 -1.4192631
-0.75205404 -0.72117203 -1.4546329 -0.33234745 -0.4586404 0.58381164 -0.037406765 1.4199938
-0.26060826 -0.9617365 -0.78781796 0.20700148 -0.22835839 0.45560908 -0.8568947 0.28692082
1.2054609 -0.4270402 0.82472163 -0.28005826 -0.29032815 2.7561464 -0.035337348 0.43356714
1.0839767 0.3211279 -1.2156067 -1.1987327 1.6571654 -0.13050309 1.6468759 0.6837023
0.23749247 -0.21169005 -0.44107634 0.26214734 0.014458716 0.21485806 0.34073272 0.108433746
-0.34439382 0.13935491 -0.12005737 -0.27394557 0.1738086 -0.107369475 -0.18857443 -0.13803859
0.27884755 -0.34084046 -0.35039312 0.17622668 -0.095050335 0.062330723 0.24981466 0.27298453
-0.340101 -0.038407482 0.020083208 -0.019125942 -0.33211833 0.30661884 -0.234928 0.07969458
-0.8800075 0.30445248 0.070382684 0.1529474 -0.00857626 0.4217735 -0.11735209 -0.31420687
0.05864933 0.015327454 -0.15613943 0.25204912 0.047626942 -0.8102596 -1.00278 0.51866186
-0.009195754 -0.11318104 0.34334674 -0.26629165 0.32706276 -0.12827022 0.1892241 -1.6379809
-0.27921316 0.36714515 -0.029072557 -0.25446212 -0.6363807 2.7894974e-05 0.19263032 -0.35510916
1.3182664 -0.6278831 -0.68546814 -0.12062377 -0.1125961 -0.5170253 0.44878757 1.3245196
0.2338555 -1.5600523 -0.754648 -0.38239652 -0.095865786 -0.49045828 -0.7562791 -0.5048171
0.776243 0.73661965 -0.35773557 -0.36995843 -0.23920071 -0.5178903 0.013832347 -0.5678794
1.7527485 -0.73446643 1.4753629 -0.45311928 -0.85114706 0.07440527 1.6668987 0.35715848

sequential_9/dense_43/MatMul f4 [1, 16]
00000000: d7f4 a0be c567 683c b722 0b3f c44d cabe
00000010: abb0 a5be ff30 36bd 01f2 3fbf a545 883e
00000020: 0f6f dc3e 7d35 0c3f 72bb 3ebd 04ca b93e
00000030: 8f46 883e 03d7 c5be 88b1 f73b 80d8 213f
-0.31436798 0.014184897 0.54349846 -0.39512455 -0.3236135 -0.04448032 -0.74978644 0.26615635
0.4305348 0.54769117 -0.04656548 0.36286938 0.26616332 -0.38640603 0.007559005 0.6322098
